projet1/mnist_model.onnx (onnx, 438441 bytes, 6 tensors)

fc.1.weight f4 [128, 784]
0	0x3d161e82	0.03665019
1	0x3d0711f1	0.032976095
2	0xbc0f627c	-0.008751508
3	0x3c980363	0.018556302
4	0x3c6711d3	0.014103371
5	0xbcd37554	-0.025812782
6	0x3cd14a36	0.025548082
7	0x3bfeaba6	0.007771927
8	0xbc8d2916	-0.017231505
9	0x3af398bb	0.0018584946
10	0xbca7d62d	-0.02048787
11	0x3d1a31f1	0.037645284
12	0xbce207ce	-0.027591612
13	0xbcd45296	-0.025918286
14	0x3d00d368	0.031451613
15	0xbbc796d8	-0.00609098
16	0x3cf58992	0.029972825
17	0xb9f6ec0e	-0.0004709665
18	0x3cc30656	0.023806732
19	0x3ce6b845	0.028164038
20	0x3cbf01f6	0.023316365
21	0x3c6c8d95	0.014438053
22	0x3c148a5a	0.009066189
23	0xbbfbb7d2	-0.007681825
24	0x3d146086	0.036224864
25	0xbc21b6ee	-0.009870274
26	0x3c8fb119	0.017540501
27	0x3d154898	0.036446184
28	0x3bbe5d69	0.005809475
29	0x3c93d219	0.018044518
30	0x3d2f6125	0.042817254
31	0x3cecb286	0.02889372
32	0x3cf497d8	0.029857561
33	0x3cd4ac26	0.025960993
34	0x3cfd1d58	0.030897781
35	0x3c436633	0.011926222
36	0x3d2907b0	0.041267097
37	0x3c2389ff	0.009981631
38	0xbc949c23	-0.018140858
39	0x3cb70b9e	0.022344407
40	0x3d13b123	0.036057603
41	0x3b4c2317	0.0031148845
42	0x3cf1e1bb	0.029526582
43	0x3cdc921e	0.026925143
44	0xbd0d19f4	-0.03444858
45	0xbceeea68	-0.029164508
46	0xbc0f0357	-0.008728824
47	0x3caa40db	0.020782879
48	0x3ba3d60d	0.004999882
49	0x3c85e060	0.016342342
50	0x3c63f7f6	0.013914099
51	0xbc5e7a46	-0.013578957
52	0x3c7907b7	0.015199593
53	0x3ceb7be0	0.028745592
54	0x3cdf28f3	0.027241206
55	0x3ce9a99f	0.028523264
56	0x3d1dec6c	0.038555548
57	0x3c260a2e	0.010134263
58	0x3cb38aec	0.021916829
59	0x3d1c7735	0.038199622
60	0x3ce31ee1	0.027724685
61	0x3c844bfc	0.016149513
62	0xbaf7415b	-0.0018864082
63	0xbc82b14a	-0.015953679
64	0xbbbb2f02	-0.005712391
65	0x3cf99777	0.030467732
66	0xbbaed8fe	-0.005335926
67	0x3d6638c0	0.056206465
68	0xba2b0abc	-0.0006524732
69	0x3c8688b6	0.01642261
70	0x3c829b48	0.015943184
71	0x3cc7fdda	0.024413038
72	0x3cba01cf	0.02270594
73	0x3c920fa9	0.017829733
74	0x3d44b656	0.04802545
75	0x3cf0fd36	0.029417615
76	0x3cccc1cd	0.024994755
77	0x3d519cdc	0.051174983
78	0x3c889cae	0.016676273
79	0x3cb39500	0.021921635
80	0xbd02990e	-0.031884246
81	0xbcee7fe0	-0.02911371
82	0x3b888405	0.0041661286
83	0x3d071194	0.03297575
84	0xbc86f3a9	-0.016473608
85	0x3b412901	0.0029473903
86	0x3d2cf428	0.042225033
87	0xbcd21907	-0.0256467
88	0x3cf63520	0.030054629
89	0x3d09ded8	0.033659786
90	0x3c53b348	0.012921162
91	0x3d40be83	0.047056686
92	0xbd0047c9	-0.03131846
93	0x3bb75ee6	0.0055960296
94	0x3d0ec888	0.03485921
95	0x3d15b812	0.036552496
96	0xbd95768f	-0.07298004
97	0xbca92930	-0.020649523
98	0x3d0f01a8	0.03491369
99	0x3db0fdbc	0.08642146
100	0xbc7d2551	-0.015450791
101	0xbd3435ed	-0.04399674
102	0xbd53f01a	-0.05174265
103	0x3c8f96cf	0.017527966
104	0xbd44b8c7	-0.04802778
105	0x3d9a6d63	0.07540395
106	0x3d3a2061	0.045441035
107	0x3dc7ad9d	0.09749911
108	0x3c33fbbb	0.01098531
109	0x3ca92e6e	0.020652022
110	0x3ccaa2e2	0.024735872
111	0x3c978333	0.018495178
112	0x3cd0c909	0.025486486
113	0x3cdaf603	0.026728636
114	0xbba4d4c3	-0.005030246
115	0xbbdb5f0d	-0.0066946805
116	0xbc64c61b	-0.013963248
117	0xbc14f301	-0.00909114
118	0x3d4b87e3	0.04969014
119	0x3d01aa92	0.03165681
120	0x3d0e8d54	0.03480275
121	0x3ca804f9	0.020510184
122	0x3d029bfe	0.031887047
123	0xbd467e62	-0.04846037
124	0xbcbc3c76	-0.022978049
125	0x3cfc20ac	0.030777298
126	0x3ca2f101	0.01989031
127	0xbb956f70	-0.0045604035
128	0xbcd3deb2	-0.025863025
129	0xbc8aaf2d	-0.016929233
130	0xbd9f105d	-0.07766793
131	0x3d67f18b	0.056626838
132	0x3dac4477	0.08411496
133	0x3d5a885d	0.053352702
134	0x3dde8683	0.108655
135	0x3da997c9	0.08280904
136	0x3b9727f6	0.004612918
137	0x3b647ef9	0.003486572
138	0x3c6dd9f2	0.014517294
139	0x3c990edb	0.018683841
140	0xba61fdd0	-0.000862089
141	0x3d2627bb	0.040565234
142	0x3ca320b5	0.019913057
143	0xbc53c688	-0.0129257515
144	0x3c80e4fe	0.015734192
145	0xbb82009c	-0.003967358
146	0x3be64537	0.007027294
147	0x3da6b3b8	0.081397474
148	0x3d893d97	0.067012005
149	0x3cd35abb	0.0258001
150	0xbcfd5a2b	-0.030926785
151	0xbb904205	-0.0044024014
152	0x3bf6b091	0.0075283726
153	0xbd3d759c	-0.04625474
154	0x3d8857b1	0.06657351
155	0xbd077e24	-0.03307928
156	0xbd911011	-0.070831425
157	0xbc895b7d	-0.016767258
158	0xbd0e5f86	-0.034759067
159	0x3d398ccc	0.04530029
160	0x3ccf44e0	0.025301397
161	0x3d730f56	0.059340797
162	0xbce10176	-0.027466517
163	0x3d33aeda	0.043867923
164	0x3d5a4d10	0.05329615
165	0x3cab5286	0.020913374
166	0x3c011174	0.007877696
167	0xbc5dc27c	-0.013535138
168	0xbb494fa3	-0.0030717633
169	0x3cd1c1e0	0.025605142
170	0x3c4ff062	0.012691589
171	0xbd22acf5	-0.039715726
172	0xbcfdc8c8	-0.030979529
173	0xbcc6a782	-0.024249796
174	0xbc1cf5e4	-0.009580109
175	0x3d54ffe6	0.052001856
176	0x3cfc1ba0	0.030774891
177	0x3d1d2e0b	0.038373988
178	0xbd36ceb3	-0.044630717
179	0x3c75ffbc	0.015014585
180	0xbc7eac95	-0.015544076
181	0xbd152c1a	-0.03641901
182	0x3b8bbc21	0.00426437
183	0xbc7a29d1	-0.015268759
184	0xbcf63349	-0.030053752
185	0xbd182af4	-0.03715034
186	0xbdaae9eb	-0.083453976
187	0xbd37d38c	-0.04487948
188	0xbc4ee5c8	-0.012628026
189	0x391f0cfc	0.00015168259
190	0x3c69204d	0.0142288925
191	0x3d917d78	0.071040094
192	0xbb02958c	-0.0019925563
193	0xbd42bc22	-0.0475427
194	0x3cf1f419	0.02953534
195	0x3d22174b	0.039572995
196	0x3cf5354c	0.02993264
197	0xbcd6cd18	-0.026220843
198	0xbb3f1b65	-0.0029160616
199	0x3ca134ee	0.01967856
200	0x3cea7113	0.028618371
201	0xbd95948c	-0.07303724
202	0xbd923a75	-0.07140056
203	0xbd375111	-0.044755045
204	0xbd122eff	-0.03568935
205	0xbca5dad7	-0.020245953
206	0xbc3106c8	-0.010804839
207	0x3c7f3b8e	0.015578164
208	0x3d02ef27	0.031966355
209	0xbce409d7	-0.027836723
210	0xbbfc995f	-0.007708713
211	0xbd3d6bd3	-0.046245407
212	0xbdb28964	-0.087176114
213	0xbd309065	-0.043106455
214	0xbdbe6f6f	-0.09298598
215	0xbd856e1b	-0.065151416
216	0xbd931768	-0.07182199
217	0xbd5f235e	-0.05447709
218	0xbcfd9eb3	-0.030959463
219	0x3cb27904	0.02178622
220	0x3b51750c	0.0031960635
221	0x3c4b888d	0.012422693
222	0x3d2aa37b	0.041659813
223	0x3cd6837d	0.026185745
224	0xbc132fd1	-0.008983568
225	0x3d06cfbc	0.032912955
226	0xbca5e5b1	-0.020251127
227	0xbcc55f84	-0.024093397
228	0x3d77d9d7	0.060510483
229	0xbca94e04	-0.020667084
230	0x3a568c98	0.0008184402
231	0xbca36ca1	-0.01994926
232	0xbd443e94	-0.04791124
233	0xba46cd55	-0.00075836974
234	0xbd3eeea3	-0.0466143
235	0xbc98c489	-0.018648403
236	0xbd2a6ed9	-0.04160962
237	0x3cb29507	0.021799577
238	0xbd1b81a2	-0.037965424
239	0xbda68af2	-0.081319705
240	0xbdf4a10d	-0.119447805
241	0xbdc4ad97	-0.09603422
242	0xbd8312c6	-0.06400065
243	0xbd5f6a54	-0.05454476
244	0xbd961b85	-0.07329468
245	0xbcdc750f	-0.026911287
246	0xbcf7f77b	-0.030269375
247	0xbda15c13	-0.0787889
248	0xbd04c7ce	-0.03241711
249	0x3d155ec8	0.036467344
250	0x3c7cfad8	0.015440665
251	0x3bd4c3ba	0.006493059
252	0x3c59f5da	0.0133032445
253	0xbccd7827	-0.025081707
254	0xbc0c435e	-0.008560983
255	0xbb907991	-0.004409023

fc.1.bias f4 [128]
0	0xbc76e743	-0.0150697855
1	0x3d1d33a6	0.038379334
2	0xbb2a8752	-0.0026020599
3	0x3d3788a1	0.044808034
4	0x3d17cf6a	0.03706304
5	0xba2a7044	-0.0006501714
6	0xbd4e42e2	-0.050356753
7	0x3b8faa51	0.004384317
8	0xbccec668	-0.025241092
9	0x3ca112b5	0.01966224
10	0xbd1223c3	-0.035678636
11	0xbb5fb964	-0.00341376
12	0xbc4b5fa8	-0.012412943
13	0x3d1b6db5	0.03794642
14	0x3c887662	0.016658012
15	0xbce9b690	-0.028529435
16	0x3c67ede5	0.01415584
17	0xbd055d7e	-0.032559864
18	0x3b7a85a3	0.0038226626
19	0x3d29d941	0.041466955
20	0x3b66cec4	0.0035218457
21	0xbb179163	-0.0023127429
22	0x3d34f53b	0.044179182
23	0x3c903d7a	0.01760744
24	0xbc89da30	-0.016827673
25	0xba26485a	-0.00063431787
26	0xbc81b8b9	-0.015835153
27	0xbc874e26	-0.016516756
28	0xbc9915b3	-0.018687105
29	0x3c1f1759	0.009710156
30	0xbd1e4555	-0.03864034
31	0xbd163577	-0.03667208
32	0xbc2a3d80	-0.010390639
33	0x3ce879de	0.028378423
34	0x3cd6ce44	0.026221402
35	0xbcf0db44	-0.029401429
36	0xbc9b2645	-0.018939147
37	0x3c09647f	0.008385777
38	0xbccd570c	-0.025065921
39	0x3cf2aa90	0.029622346
40	0xbb9e73ec	-0.0048355963
41	0xbb5f8b7b	-0.0034110236
42	0xbcac6748	-0.021045342
43	0xbc213082	-0.009838225
44	0x3c890283	0.01672483
45	0xbce78b51	-0.028264673
46	0xbc67e700	-0.014154196
47	0xbc8eea60	-0.017445743
48	0xbcab781a	-0.020931292
49	0xbc8ab553	-0.016932165
50	0xbcdd59b6	-0.027020317
51	0xbad680ca	-0.0016365286
52	0xbc4eb689	-0.012616762
53	0xbac81d79	-0.0015267573
54	0xbd2f93c0	-0.042865515
55	0xbcca7b48	-0.024716988
56	0xbcc9b9af	-0.024624674
57	0xbd06d2dc	-0.032915935
58	0x3c58bf73	0.013229239
59	0x3c874352	0.016511593
60	0x3c2ac73f	0.0104234805
61	0x3d5e3456	0.05424913
62	0xbd2484a8	-0.040165573
63	0x3b8cf9ac	0.004302224
64	0x3b90e34e	0.004421628
65	0xbcc29182	-0.023751024
66	0x3a251ec2	0.0006298834
67	0xbcffc66e	-0.031222548
68	0xbcd78046	-0.026306283
69	0x3bd7b78f	0.006583161
70	0x3b95ebc8	0.0045752265
71	0xbabe7865	-0.001453173
72	0xbd0a3879	-0.033745263
73	0x3d3e1e1d	0.046415437
74	0xbcd7c663	-0.026339715
75	0xbcd6d214	-0.02622322
76	0x3cd6777f	0.026180027
77	0xbabe957c	-0.00145404
78	0xbc41f4a5	-0.011838113
79	0x3c9b98f5	0.018993834
80	0xbd4354b6	-0.04768821
81	0xbd234fd5	-0.039871056
82	0xbce4fc04	-0.027952202
83	0x3b7fd410	0.0039036311
84	0xbd8f54a9	-0.069985695
85	0xbd1b461c	-0.03790866
86	0xbcf176bf	-0.029475568
87	0xbcad36a9	-0.021144228
88	0xbb79554c	-0.0038045226
89	0x3cf7e08f	0.030258445
90	0x3c3bd8fb	0.011465306
91	0xbc1bce05	-0.009509568
92	0xbc2323a8	-0.009957232
93	0xbc186dfa	-0.009303564
94	0xbcc17160	-0.023613632
95	0xbbc0031f	-0.005859747
96	0x3d19cb23	0.037547242
97	0xbbee0020	-0.0072631985
98	0xbcfc7598	-0.030817792
99	0xbbae5500	-0.0053201914
100	0x3c1601d6	0.009155711
101	0x3bf91a18	0.0076019876
102	0x3cc6b7ff	0.024257658
103	0x3c1ef16f	0.009701117
104	0x3cc9c863	0.024631685
105	0xbd0adc7f	-0.033901688
106	0x3cafb09d	0.02144652
107	0xbc87610a	-0.016525764
108	0x3ccde4c8	0.025133505
109	0x3d2f5d2c	0.042813465
110	0xbc6564de	-0.014001099
111	0xbb138ae2	-0.00225132
112	0xbd9c7362	-0.07639195
113	0x3d0ab424	0.0338632
114	0x3bde2a37	0.0067799347
115	0xbd06ddc3	-0.032926332
116	0x3c125aaa	0.008932749
117	0xb91b7af8	-0.00014827761
118	0xbd0de5ce	-0.034642987
119	0xbaed8aae	-0.0018122995
120	0x3ce11239	0.02747451
121	0xbb532501	-0.00322181
122	0x3ca1f122	0.019768301
123	0xbd1ccbd1	-0.038280312
124	0xbcfe7f38	-0.031066522
125	0x3c69a250	0.01425989
126	0x3c969d96	0.01838569
127	0xbc294633	-0.010331678

fc.3.weight f4 [64, 128]
0	0x3d207034	0.039169505
1	0xbc2c7a71	-0.010527239
2	0x3d5f7665	0.05455627
3	0xbd4f4448	-0.050602227
4	0xbd287ee3	-0.041136634
5	0x3d81556f	0.06315123
6	0x3bd992be	0.0066398075
7	0xbdc6ad4d	-0.09701023
8	0xbdaa843c	-0.08326003
9	0xbd851967	-0.06498986
10	0xbc55c383	-0.013047102
11	0x3be79846	0.007067713
12	0xbe4dca65	-0.20096739
13	0x3bdad059	0.006677669
14	0x3d3704cd	0.044682313
15	0x3e002f08	0.12517941
16	0x3df83d37	0.12121051
17	0x3cd790e5	0.026314208
18	0x3e1798cf	0.14804386
19	0xbd651f8d	-0.055938292
20	0xbdbc6ad6	-0.09200065
21	0xbdeaa652	-0.11457504
22	0x3d81cf37	0.06338351
23	0xbdd990c8	-0.10623318
24	0xbb91f161	-0.0044538234
25	0xbcc214f0	-0.023691624
26	0xbd563963	-0.052300822
27	0xbd706f8a	-0.058700122
28	0x3e14b701	0.14522935
29	0x3c382466	0.011239147
30	0xbd56e455	-0.05246385
31	0x3df4026e	0.11914526
32	0x3c3f9f8a	0.011695752
33	0x3d806858	0.06269902
34	0x3e11c08b	0.14233606
35	0xbd96fe4f	-0.07372724
36	0x3e0bfecb	0.13671415
37	0xbd8140ee	-0.063112125
38	0x3c3edf27	0.011649883
39	0x3dac40eb	0.084108196
40	0xbd8086bb	-0.06275698
41	0xbe0aaa24	-0.13541466
42	0xbc98f84f	-0.01867309
43	0xbda39ed5	-0.07989279
44	0xbd6ace32	-0.05732555
45	0x3d0c8dfb	0.03431509
46	0x3c80006d	0.015625203
47	0x3d7e8d19	0.06214628
48	0xbcd39002	-0.025825504
49	0xbd5aac17	-0.053386774
50	0x3e096677	0.13417993
51	0xbc30d5f1	-0.010793195
52	0x3dea9d2f	0.11455762
53	0x3da1e251	0.079044946
54	0xbd72e79f	-0.059302922
55	0x3d9e6386	0.07733826
56	0x3dc5de29	0.09661514
57	0xbe33b1ce	-0.17548296
58	0x3cb2a2ac	0.021806084
59	0x3de036ec	0.109479755
60	0x3dd9fb4b	0.106436335
61	0xbcb917f5	-0.022594431
62	0xbe76052c	-0.2402541
63	0xbe76dd67	-0.24107896
64	0x3d36934e	0.044574074
65	0xbc87ac88	-0.016561761
66	0xbccbd63c	-0.024882428
67	0xbddc467f	-0.107556336
68	0x3e0c50d9	0.13702716
69	0x3e0eacb8	0.13933074
70	0xbd0e0460	-0.03467214
71	0xbd67c070	-0.056580007
72	0xbe00b82c	-0.12570256
73	0x3db04f2d	0.086088516
74	0x3d7e4432	0.062076755
75	0xbdb6adb6	-0.089198515
76	0x3cf4b852	0.029873047
77	0x3d19bca7	0.03753343
78	0xbc3e922d	-0.011631531
79	0xbdd9b37f	-0.10629939
80	0xbceecbcd	-0.029149914
81	0x3d53dc08	0.05172351
82	0x3e6ecb3e	0.23319718
83	0xbdba6ab1	-0.09102381
84	0x3d4ec811	0.050483767
85	0x3e290175	0.16504462
86	0xbc48093b	-0.012209232
87	0x399c63ff	0.00029829142
88	0xbd20f6ea	-0.039297976
89	0x3dc2df0d	0.095152
90	0x3e031f26	0.12804851
91	0x3d94e9e4	0.072711736
92	0xbd975c3f	-0.073906414
93	0x3e1653c2	0.14680389
94	0x3d98d99a	0.07463379
95	0x3d33761c	0.04381381
96	0x3d03bfe2	0.032165416
97	0x3db1f459	0.08689184
98	0x3db4fd6a	0.088373974
99	0xbe5b4bd6	-0.21415648
100	0xbd9b105c	-0.0757148
101	0x3cabc03c	0.020965688
102	0x3e032021	0.12805225
103	0x3cd89437	0.026437862
104	0xbd0740bd	-0.033020724
105	0x3c3c5083	0.011493805
106	0x3e001b35	0.12510379
107	0x3b60a237	0.0034276375
108	0xbd1ad9e8	-0.037805468
109	0x3e8fda1d	0.28096095
110	0x3d4e4a5e	0.05036389
111	0xbd51996e	-0.051171713
112	0x3e10000a	0.14062515
113	0x3e1de9b4	0.15421182
114	0x3d1dc7ae	0.038520508
115	0xbe75ea8a	-0.24015251
116	0x3db844d4	0.08997503
117	0xbc2455c0	-0.01003021
118	0x3e2559ba	0.16147509
119	0xbe300b49	-0.17191805
120	0xbcd82c4a	-0.026388306
121	0x3d73f8a9	0.059563313
122	0xbd830757	-0.06397884
123	0x3ce83e7a	0.028350104
124	0xbd630768	-0.055426985
125	0xbe6acad7	-0.2292894
126	0xbd0341a4	-0.03204502
127	0x3d4fcf3e	0.05073475
128	0x3d6509ba	0.05591748
129	0xbd9fac33	-0.07796516
130	0x3d3b5f8a	0.04574541
131	0xbe86c7d2	-0.26324326
132	0x3d1436c0	0.036185026
133	0x3dc42886	0.09578042
134	0x3df5088d	0.119645216
135	0xbd8a532b	-0.06754144
136	0xbd3e75a5	-0.046498913
137	0xbcfc2645	-0.030779967
138	0x3d1506fa	0.036383606
139	0xbd63368e	-0.05547195
140	0xbd61c4be	-0.05511927
141	0xbdb8f525	-0.090311326
142	0xbea4f286	-0.3221628
143	0xbdb76062	-0.089539304
144	0xbd2886aa	-0.04114405
145	0xbe0850bd	-0.13312049
146	0xbcaca516	-0.021074813
147	0xbde34fae	-0.11099182
148	0x3d98a46a	0.074532345
149	0xbc75b96c	-0.014997821
150	0x3db280ee	0.08715998
151	0x3d24be98	0.040220827
152	0xbd32c724	-0.043646947
153	0x3d88e357	0.06683987
154	0x3c10a77e	0.008828996
155	0xbdb4a2d4	-0.088201195
156	0x3d02ead7	0.031962242
157	0xbca28011	-0.019836457
158	0x3d678612	0.056524344
159	0x3e75bc7c	0.23997682
160	0xbdc2c38f	-0.09509956
161	0xbe6d972c	-0.23202199
162	0xbd02981e	-0.03188335
163	0x3e0e8734	0.13918763
164	0xbe1df029	-0.15423645
165	0x3cef56da	0.029216219
166	0x3e178d27	0.14799939
167	0x3d9708fe	0.07374762
168	0x3daa01e9	0.083011456
169	0x3e15454f	0.1457722
170	0x3d90eae5	0.070760526
171	0xbd64e8a0	-0.05588591
172	0xbca93526	-0.020655226
173	0xbce952ec	-0.028481923
174	0x3d2bb987	0.04192498
175	0xbcac9974	-0.021069266
176	0xbc248218	-0.010040782
177	0x3e0e9b04	0.13926321
178	0xbd69cb30	-0.05707854
179	0x3dc379d8	0.09544724
180	0xbd9ca9df	-0.07649588
181	0x3e4e5217	0.20148502
182	0x3cf845c0	0.030306697
183	0x3d7915e8	0.060811907
184	0xbe025771	-0.12728669
185	0x3db55f54	0.08856073
186	0x3da055f3	0.078288935
187	0xbb78bddf	-0.003795497
188	0xbed7c9c4	-0.42146122
189	0x3df757a9	0.12077267
190	0x3e2b59c4	0.16733462
191	0x3c7a239b	0.015267278
192	0x39de525d	0.00042404505
193	0x3da2b184	0.07944015
194	0x3cd3bb15	0.025846044
195	0x3ca7150f	0.020395784
196	0xbe57f6cf	-0.21090244
197	0xbd173692	-0.036917277
198	0xbdc85737	-0.0978226
199	0x3d159e92	0.036528178
200	0x3dc90012	0.098144665
201	0x3c89e580	0.016833067
202	0x3e1c88be	0.15286538
203	0x3daf9bc2	0.0857463
204	0xbd8de89a	-0.06929131
205	0x3dd48eeb	0.10378822
206	0x3dbd4ad7	0.0924279
207	0xbd8f680a	-0.07002266
208	0xbde75d3e	-0.112970814
209	0x3a99899a	0.0011713982
210	0xbd3adc36	-0.045620166
211	0xbd87ac34	-0.06624642
212	0x3dfe9ded	0.12432466
213	0x3d668491	0.05627877
214	0x3e41b821	0.18917896
215	0x3ce3df18	0.02781634
216	0x3d1dd675	0.0385346
217	0x3c19fd45	0.009398763
218	0x3d38eb74	0.04514642
219	0xbe1dc3b5	-0.15406688
220	0x3e1900fc	0.14941782
221	0x3d7b2777	0.061316933
222	0x3c91ccf5	0.017797926
223	0xbcff6f1e	-0.031180914
224	0xbd446ff1	-0.04795832
225	0xbd5cd23a	-0.053911425
226	0x3d5cb8eb	0.05388729
227	0xbe14514b	-0.14484136
228	0x3d86b0ab	0.065766655
229	0xbd5deed3	-0.05418284
230	0xbec02467	-0.37527773
231	0x3e20fb48	0.15720856
232	0xbc09cf3b	-0.008411224
233	0xbdfc2824	-0.12312344
234	0xbdf236c2	-0.118268505
235	0x3d4055bd	0.046956766
236	0x3da03260	0.07822108
237	0xbe69e37e	-0.22840688
238	0x3dccdf3b	0.10003515
239	0x3d528c98	0.051403612
240	0x3e054c5f	0.13017415
241	0x394336bf	0.00018617044
242	0x3d98293a	0.07429738
243	0x3e658a69	0.2241608
244	0xbd27dd3c	-0.04098247
245	0xbb176a4b	-0.0023104127
246	0xbdd31803	-0.10307314
247	0x3df16c64	0.11788252
248	0xbdee30ac	-0.11630377
249	0x3dc28275	0.09497539
250	0x3d525f30	0.05136031
251	0x3dd72215	0.105045475
252	0xbca87960	-0.020565689
253	0x3d323822	0.043510564
254	0xbd556843	-0.052101385
255	0x3d486ed0	0.048933804

fc.3.bias f4 [64]
0	0xbdb1fcba	-0.08690782
1	0x3d8ecfbd	0.06973217
2	0xbcbbb920	-0.022915423
3	0x3dadea76	0.084919855
4	0x3d7bef5c	0.061507568
5	0xbdcbff55	-0.0996081
6	0x3cd50439	0.02600299
7	0xbc06cdf4	-0.008227814
8	0xbbcd8112	-0.00627149
9	0xbdb773ac	-0.089576095
10	0x3d9a6582	0.07538892
11	0xbd1e47ef	-0.03864282
12	0x3d1223fb	0.035678845
13	0xbd6d0e98	-0.057875246
14	0xbe015322	-0.12629369
15	0x3cd8758a	0.026423234
16	0xbe079c68	-0.13243258
17	0xbd958733	-0.07301178
18	0x3de12bae	0.10994659
19	0xbc0da1b5	-0.008644511
20	0x3baab44b	0.005209481
21	0x3b4307e1	0.0029759335
22	0x3dde3c38	0.108513296
23	0xbb07d189	-0.0020724258
24	0x3d241744	0.04006125
25	0x3e0fd50a	0.14046112
26	0x3cb8a5a9	0.02253993
27	0xbd5b9133	-0.05360527
28	0xbddf10c8	-0.10891873
29	0x3be447f2	0.0069665844
30	0xbd904abc	-0.070455045
31	0x3d939195	0.07205502
32	0x3c311c1e	0.010809926
33	0xbd8647c4	-0.06556657
34	0x3db210b2	0.08694591
35	0x3da0269d	0.07819865
36	0xbacb8691	-0.0015527775
37	0x3d6ce0bf	0.057831522
38	0xbc8ddf7d	-0.017318482
39	0x3d885756	0.06657283
40	0xbd577629	-0.05260292
41	0xbd8ccd97	-0.06875151
42	0xbc7364f7	-0.014855615
43	0xbc9769eb	-0.018483123
44	0xbd696c6b	-0.05698816
45	0x3e0b3b35	0.13596804
46	0x3e1c419a	0.152594
47	0x3dd1b7b5	0.102401175
48	0x3a8e79e5	0.0010870068
49	0xbdaf955e	-0.085734114
50	0xbd8e7216	-0.06955354
51	0x3d71dcb5	0.059048373
52	0xbd410dc9	-0.047132287
53	0x3cdacc58	0.026708767
54	0x3cf6eb1a	0.030141402
55	0xbdabeea6	-0.08395128
56	0x3d1bd734	0.03804703
57	0xbab39bb4	-0.0013703019
58	0x3dddad43	0.10824063
59	0x3dc5cadd	0.09657834
60	0x3db36821	0.087600954
61	0x3db852cd	0.09000168
62	0x3db10d40	0.08645105
63	0x3cea4557	0.028597517

fc.5.weight f4 [10, 64]
0	0xbe0d6882	-0.13809398
1	0x3cdd4726	0.027011465
2	0x3ca73f00	0.020415783
3	0x3e14f0b9	0.14544953
4	0x3e45224d	0.19251366
5	0x3d986a20	0.07442117
6	0xbe794b36	-0.24345097
7	0x3dec90b8	0.115510404
8	0x3d626360	0.055270553
9	0xbd7855c7	-0.06062868
10	0x3e46251f	0.19350098
11	0xbd9e0ca2	-0.07717253
12	0xbd645ada	-0.055750705
13	0x3d3e1320	0.046404958
14	0xbdf28d26	-0.11843328
15	0x3b0dacda	0.002161792
16	0x3e04e7f8	0.12979114
17	0xbead3671	-0.33830598
18	0xbe0725dd	-0.13198037
19	0xbd89542a	-0.06705506
20	0xbd9724bb	-0.07380053
21	0x3dc44979	0.09584326
22	0xbe7c600b	-0.24646012
23	0xbda3bf3e	-0.07995461
24	0xbe4d80b1	-0.20068623
25	0x3db26858	0.08711308
26	0x3d84a288	0.06476313
27	0xbda70535	-0.0815529
28	0x3c71b211	0.014751927
29	0x3dc1e55a	0.094675735
30	0x3e006320	0.12537813
31	0xbd9a2824	-0.075271875
32	0x3deacea6	0.11465196
33	0xbb0bb5c1	-0.002131805
34	0xbe967b6f	-0.29391047
35	0xbe414480	-0.18873787
36	0xbddf4c35	-0.10903207
37	0x3d818a2a	0.06325181
38	0x3ca5a358	0.02021949
39	0x3e3d2765	0.18472059
40	0xbe67d0d6	-0.22638258
41	0xbd411ed4	-0.04714854
42	0xbcbad911	-0.022808583
43	0x3cf28b1b	0.029607346
44	0x3da282d4	0.0793511
45	0xbcdaae56	-0.026694458
46	0xbdecbc94	-0.11559406
47	0xbe2c825e	-0.16846606
48	0x3cc17d06	0.023619186
49	0x3d95c77d	0.0731344
50	0xbe10165e	-0.14071032
51	0xbc4be35c	-0.012444343
52	0xbe1cd046	-0.15313825
53	0xbe5bc2f2	-0.21461084
54	0x3d2aeff2	0.041732736
55	0x3e2d8ac6	0.16947469
56	0xbe88a03a	-0.26684743
57	0x3ccfdc74	0.025373675
58	0x3dec678c	0.115431875
59	0x3dd43ad1	0.10362781
60	0xbdb80c6d	-0.08986745
61	0xbe650a4d	-0.2236721
62	0xbe3751e8	-0.17902339
63	0xbdf84f7f	-0.12124538
64	0xbd5180b6	-0.05114814
65	0x3df6f1a8	0.12057811
66	0x3ddf4a94	0.109028965
67	0xbe74c534	-0.23903352
68	0xbdb95189	-0.09048755
69	0xbdb1b4d8	-0.08677071
70	0x3e2d8bee	0.1694791
71	0xbe25960e	-0.16170523
72	0xbe4aa866	-0.19790801
73	0x3da5edcf	0.08101999
74	0x3e484e81	0.19561197
75	0xbdb7be2e	-0.08971821
76	0xbe2df333	-0.16987304
77	0x3e1bd0fb	0.15216438
78	0x3da54884	0.08070472
79	0xbdb4b987	-0.08824449
80	0x3dbe39ae	0.09288345
81	0x3e19e85e	0.15030047
82	0xbe1436da	-0.14474049
83	0x3e442d06	0.191578
84	0x3d995995	0.074877895
85	0x3e4d28fb	0.20035164
86	0x3e1c3e55	0.15258153
87	0xbd060a69	-0.03272477
88	0x3dc145f4	0.094371706
89	0x3c96d7d4	0.018413462
90	0xbdceb704	-0.10093501
91	0xbd9f77d6	-0.07786529
92	0x3d75a957	0.05997595
93	0xbe60aa0c	-0.21939868
94	0xbd8397da	-0.06425448
95	0x3c186f6f	0.009303912
96	0xbde8cd9c	-0.11367342
97	0xbc1827b9	-0.009286814
98	0xbdf0998a	-0.11748035
99	0xbc91de69	-0.017806249
100	0x3dd438fe	0.10362433
101	0xbcb2758a	-0.021784563
102	0xbdaac890	-0.083390355
103	0xbd909422	-0.07059504
104	0x3d83eaef	0.064412944
105	0x3ddb4a6b	0.107075535
106	0x3e507873	0.20358448
107	0xbe296635	-0.16542895
108	0x3e23118f	0.15924667
109	0x3df4e5eb	0.11957916
110	0xbd756681	-0.05991221
111	0xbc727ffa	-0.01480102
112	0xbdc1bf5b	-0.09460326
113	0x3e5c0904	0.21487814
114	0x3d743673	0.05962224
115	0xbe8019f2	-0.25019795
116	0xbd3dc31b	-0.046328645
117	0x3c5130f0	0.012768015
118	0xbdc172f1	-0.094457515
119	0xbe16f195	-0.14740594
120	0x3d5c6817	0.053810205
121	0xbe49672f	-0.19668268
122	0xbd0b07ef	-0.033943113
123	0x3d8512d1	0.064977296
124	0xbe16bd0b	-0.14720552
125	0xbe241efc	-0.16027445
126	0xbe4a4e30	-0.19756389
127	0x3dc25129	0.09488136
128	0x3d124339	0.03570864
129	0xbe853c21	-0.26022437
130	0x3e25ce0d	0.16191883
131	0x3e2ce3fb	0.16883843
132	0xbe44054c	-0.19142646
133	0xbdd63cc1	-0.10460807
134	0xbda82c1f	-0.082115404
135	0xbd37f20c	-0.04490857
136	0xbbb7022d	-0.005584976
137	0xbd62cea4	-0.05537285
138	0x3e2b57d4	0.16732723
139	0xbc9c70e9	-0.019096809
140	0xbd2a5366	-0.04158344
141	0x3df0e5a1	0.11762548
142	0xbdcaf9fb	-0.09910961
143	0x3bc2cb68	0.005944658
144	0x3dc34ea0	0.09536481
145	0xbe2f3925	-0.17111643
146	0x3d57fd81	0.052731995
147	0xbc5d4bd9	-0.013506853
148	0x3d4c5e69	0.049894724
149	0x3dea87bf	0.11451673
150	0xbd95ae59	-0.07308645
151	0x3ae7be5c	0.0017680633
152	0xbe8dec74	-0.27719462
153	0x3d2bc368	0.0419344
154	0xbd4be8f9	-0.049782727
155	0xbdc6f8c3	-0.09715416
156	0x3e60fd37	0.21971594
157	0xbe214e5b	-0.15752546
158	0xbe669aa2	-0.22519925
159	0xbe02f73f	-0.1278963
160	0x3da435db	0.080180846
161	0x3d02c0ae	0.031922035
162	0x3d2a17ee	0.041526727
163	0xbe80526a	-0.25062877
164	0x3e173728	0.14767134
165	0xbdd09a99	-0.10185737
166	0x3c9684e6	0.018373918
167	0x3e283ed2	0.16430214
168	0x3e28343d	0.16426177
169	0x3e2858f4	0.16440183
170	0xbd0238fc	-0.031792626
171	0x3dd24457	0.10266941
172	0x3df1ee53	0.11813035
173	0x3d5a6770	0.053321302
174	0x3dd4d486	0.10392098
175	0x3de2b172	0.11069001
176	0xbd9f4012	-0.07775892
177	0xbe751787	-0.23934756
178	0x3e3fe912	0.18741253
179	0xbe148210	-0.1450274
180	0x3df5bda0	0.11999059
181	0x3dcd2966	0.10017662
182	0x3b138b0c	0.0022513298
183	0x3e2b54cf	0.1673157
184	0x3d5383b8	0.05163929
185	0x3da6bb43	0.08141186
186	0xbdaa1a56	-0.083058044
187	0xbe2e4347	-0.17017852
188	0x3d2fed74	0.042951062
189	0xbb8f84b0	-0.0043798313
190	0xbe262518	-0.16225088
191	0xbe03e661	-0.12880851
192	0xbd595ef3	-0.053069066
193	0xbdec2f5c	-0.115324706
194	0x3dbb2544	0.09137967
195	0xbd629e4e	-0.055326752
196	0xbe845f6d	-0.25854054
197	0x3e590e58	0.21196878
198	0x3cc003f0	0.023439378
199	0x3de3bce9	0.11120016
200	0x3e2cb44e	0.16865656
201	0x3d753c4a	0.05987195
202	0x3dadabeb	0.084800564
203	0xbc826c4a	-0.015920777
204	0xbd81e946	-0.063433215
205	0xbc1dc1a7	-0.00962869
206	0xbcefd02f	-0.029274074
207	0x3d93eecb	0.072232805
208	0x3e02dc18	0.12779272
209	0x3cce05b7	0.02514921
210	0xbc3d338f	-0.011547937
211	0xbe271f0a	-0.16320434
212	0x3e0ae12b	0.13562457
213	0xbdf3178b	-0.11869725
214	0xbd35f2b2	-0.044420905
215	0x3cf1d5ea	0.029520947
216	0xbdb97e35	-0.09057275
217	0xbd98c0a9	-0.07458622
218	0xbd808cd4	-0.06276861
219	0x3d71ca42	0.05903078
220	0xbd1840f2	-0.03717131
221	0xbc6ff4e4	-0.014645789
222	0xbddc58ac	-0.107591
223	0x3e080510	0.13283181
224	0x3e16d87f	0.14731024
225	0xbd89cff1	-0.06729115
226	0x3d3a7017	0.045517053
227	0x3c815548	0.015787736
228	0xbe52b613	-0.20577268
229	0x3d90c45b	0.07068702
230	0xbca85beb	-0.020551642
231	0xbe0fb2d1	-0.14033057
232	0xbd13e520	-0.036107183
233	0xbda38aae	-0.079854354
234	0xbe8205bc	-0.25395
235	0x3d4e4357	0.05035719
236	0x3c696c7b	0.014247055
237	0x3deff53b	0.11716696
238	0x3e1233f6	0.14277634
239	0x3e26badf	0.16282223
240	0xbdf04548	-0.11731964
241	0xbd88360b	-0.06650933
242	0xbe54d74f	-0.20785259
243	0x3e1b9e47	0.15197097
244	0xbd418e06	-0.047254585
245	0x3e070d32	0.13188627
246	0x3de7c7e0	0.1131742
247	0xbe06e475	-0.13173087
248	0x3dc351f6	0.09537117
249	0xbe36616f	-0.17810605
250	0xb9bd3e3b	-0.00036095254
251	0xbe08824e	-0.13330957
252	0xbe037e01	-0.12841035
253	0xbe4393a7	-0.19099294
254	0x3d952ccb	0.07283934
255	0x3dd616a5	0.10453538

fc.5.bias f4 [10]
0	0xbca83241	-0.020531775
1	0xbd274c2c	-0.040844128
2	0xbe03163f	-0.12801455
3	0xbd64a8aa	-0.055824913
4	0x3d566caa	0.052349724
5	0x3e080b3e	0.13285539
6	0xbdf43966	-0.119250104
7	0x3c28176f	0.010259493
8	0x3e046d1b	0.12932245
9	0xbd004ad5	-0.031321365
